…
se_mcloader=False, inat_category='name', output_dir='checkpoints/simba_l', device='cuda', seed=0, resume='', start_epoch=0, eval=False, dist_eval=False, num_workers=12, pin_mem=True, world_size=1, dist_url='env://', token_label=False, token_label_data='', token_label_size=1, dense_weight=0.5, cls_weight=1.0, no_aug=False, scale=[0.08, 1.0], ratio=[0.75, 1.3333333333333333], hflip=0.5, vflip=0.0, use_multi_epochs_loader=False, rank=0, gpu=0, distributed=True, dist_backend='nccl')
[05/06 16:12:22] train INFO: Creating model: simba_l
SiMBA(
  (patch_embed1): Stem(
    (conv): Sequential(
      (0): Conv2d(3, 64, kernel_size=(7, 7), stride=(2, 2), padding=(3, 3), bias=False)
      (1): BatchNorm2d(64, eps=1e-05, momentum=0.1, affine=True, track_running_stats=True)
      (2): ReLU(inplace=True)
      (3): Conv2d(64, 64, kernel_size=(3, 3), stride=(1, 1), padding=(1, 1), bias=False)
      (4): BatchNorm2d(64, eps=1e-05, momentum=0.1, affine=True, track_running_stats=True)
      (5): ReLU(inplace=True)
      (6): Conv2d(64, 64, kernel_size=(3, 3), stride=(1, 1), padding=(1, 1), bias=False)
      (7): BatchNorm2d(64, eps=1e-05, momentum=0.1, affine=True, track_running_stats=True)
      (8): ReLU(inplace=True)
    )
    (proj): Conv2d(64, 96, kernel_size=(3, 3), stride=(2, 2), padding=(1, 1))
    (norm): LayerNorm((96,), eps=1e-05, elementwise_affine=True)
  )
  (block1): ModuleList(
    (0): Block_mamba(
      (norm2): LayerNorm((96,), eps=1e-06, elementwise_affine=True)
      (attn): MambaLayer(
        (norm): LayerNorm((96,), eps=1e-05, elementwise_affine=True)
        (mamba): Mamba(
          (in_proj): Linear(in_features=96, out_features=384, bias=False)
          (conv1d): Conv1d(192, 192, kernel_size=(4,), stride=(1,), padding=(3,), groups=192)
          (act): SiLU()
          (x_proj): Linear(in_features=192, out_features=134, bias=False)
          (dt_proj): Linear(in_features=6, out_features=192, bias=True)
          (out_proj): Linear(in_features=192, out_features=96, bias=False)
        )
      )
      (mlp): EinFFT()
      (drop_path): Identity()
    )
    (1-2): 2 x Block_mamba(
      (norm2): LayerNorm((96,), eps=1e-06, elementwise_affine=True)
      (attn): MambaLayer(
        (norm): LayerNorm((96,), eps=1e-05, elementwise_affine=True)
        (mamba): Mamba(
          (in_proj): Linear(in_features=96, out_features=384, bias=False)
          (conv1d): Conv1d(192, 192, kernel_size=(4,), stride=(1,), padding=(3,), groups=192)
          (act): SiLU()
          (x_proj): Linear(in_features=192, out_features=134, bias=False)
          (dt_proj): Linear(in_features=6, out_features=192, bias=True)
          (out_proj): Linear(in_features=192, out_features=96, bias=False)
        )
      )
      (mlp): EinFFT()
      (drop_path): DropPath()
    )
  )
  (norm1): LayerNorm((96,), eps=1e-06, elementwise_affine=True)
  (patch_embed2): DownSamples(
    (proj): Conv2d(96, 192, kernel_size=(3, 3), stride=(2, 2), padding=(1, 1))
    (norm): LayerNorm((192,), eps=1e-05, elementwise_affine=True)
  )
  (block2): ModuleList(
    (0-5): 6 x Block_mamba(
      (norm2): LayerNorm((192,), eps=1e-06, elementwise_affine=True)
      (attn): MambaLayer(
        (norm): LayerNorm((192,), eps=1e-05, elementwise_affine=True)
        (mamba): Mamba(
          (in_proj): Linear(in_features=192, out_features=768, bias=False)
          (conv1d): Conv1d(384, 384, kernel_size=(4,), stride=(1,), padding=(3,), groups=384)
          (act): SiLU()
          (x_proj): Linear(in_features=384, out_features=140, bias=False)
          (dt_proj): Linear(in_features=12, out_features=384, bias=True)
          (out_proj): Linear(in_features=384, out_features=192, bias=False)
        )
      )
      (mlp): EinFFT()
      (drop_path): DropPath()
    )
  )
  (norm2): LayerNorm((192,), eps=1e-06, elementwise_affine=True)
  (patch_embed3): DownSamples(
    (proj): Conv2d(192, 384, kernel_size=(3, 3), stride=(2, 2), padding=(1, 1))
    (norm): LayerNorm((384,), eps=1e-05, elementwise_affine=True)
  )
  (block3): ModuleList(
    (0-17): 18 x Block_mamba(
      (norm2): LayerNorm((384,), eps=1e-06, elementwise_affine=True)
      (attn): MambaLayer(
        (norm): LayerNorm((384,), eps=1e-05, elementwise_affine=True)
        (mamba): Mamba(
          (in_proj): Linear(in_features=384, out_features=1536, bias=False)
          (conv1d): Conv1d(768, 768, kernel_size=(4,), stride=(1,), padding=(3,), groups=768)
          (act): SiLU()
          (x_proj): Linear(in_features=768, out_features=152, bias=False)
          (dt_proj): Linear(in_features=24, out_features=768, bias=True)
          (out_proj): Linear(in_features=768, out_features=384, bias=False)
        )
      )
      (mlp): EinFFT()
      (drop_path): DropPath()
    )
  )
  (norm3): LayerNorm((384,), eps=1e-06, elementwise_affine=True)
  (patch_embed4): DownSamples(
    (proj): Conv2d(384, 512, kernel_size=(3, 3), stride=(2, 2), padding=(1, 1))
    (norm): LayerNorm((512,), eps=1e-05, elementwise_affine=True)
  )
  (block4): ModuleList(
    (0-2): 3 x Block_mamba(
      (norm2): LayerNorm((512,), eps=1e-06, elementwise_affine=True)
      (attn): MambaLayer(
        (norm): LayerNorm((512,), eps=1e-05, elementwise_affine=True)
        (mamba): Mamba(
          (in_proj): Linear(in_features=512, out_features=2048, bias=False)
          (conv1d): Conv1d(1024, 1024, kernel_size=(4,), stride=(1,), padding=(3,), groups=1024)
          (act): SiLU()
          (x_proj): Linear(in_features=1024, out_features=160, bias=False)
          (dt_proj): Linear(in_features=32, out_features=1024, bias=True)
          (out_proj): Linear(in_features=1024, out_features=512, bias=False)
        )
      )
      (mlp): EinFFT()
      (drop_path): DropPath()
    )
  )
  (norm4): LayerNorm((512,), eps=1e-06, elementwise_affine=True)
  (post_network): ModuleList(
    (0): ClassBlock(
      (norm2): LayerNorm((512,), eps=1e-06, elementwise_affine=True)
      (attn): MambaLayer(
        (norm): LayerNorm((512,), eps=1e-05, elementwise_affine=True)
        (mamba): Mamba(
          (in_proj): Linear(in_features=512, out_features=2048, bias=False)
          (conv1d): Conv1d(1024, 1024, kernel_size=(4,), stride=(1,), padding=(3,), groups=1024)
          (act): SiLU()
          (x_proj): Linear(in_features=1024, out_features=160, bias=False)
          (dt_proj): Linear(in_features=32, out_features=1024, bias=True)
          (out_proj): Linear(in_features=1024, out_features=512, bias=False)
        )
      )
      (mlp): EinFFT()
    )
  )
  (head): Linear(in_features=512, out_features=1000, bias=True)
)
/volume1/users/rgeens/simba/simba/simba.py:90: UserWarning: Casting complex values to real discards the imaginary part (Triggered internally at /pytorch/aten/src/ATen/native/Copy.cpp:307.)
  x = x.to(torch.float32)
Model simba_l created, flops_count: 1.57 GMac, param count: 36.13 M
[05/06 16:12:23] train INFO: number of params: 36128264
/volume1/users/rgeens/simba/env/lib/python3.11/site-packages/timm/utils/cuda.py:40: FutureWarning: `torch.cuda.amp.GradScaler(args...)` is deprecated. Please use `torch.amp.GradScaler('cuda', args...)` instead.
…
